artifacts/mnist/ae.pt (torch, 276850 bytes, 42 tensors)

encoder.0.conv.weight f4 [16, 1, 3, 3]
000000 a0 ff 0c 3e 9e fb 2e be 73 19 5f bd ef a9 14 3e
       0.13769388 -0.17088172 -0.05446763 0.1451795
000010 61 53 24 3d c3 5f 2a 3e e2 f2 09 be 22 50 80 be
       0.04011858 0.16638093 -0.13471559 -0.25061136
000020 b2 98 f1 3d 6d 8f 08 bd fd b2 e5 bd 89 6c 53 be
       0.117967024 -0.033339906 -0.1121578 -0.20646872
000030 f2 09 c5 bd b1 39 95 be d1 23 a8 be a2 e1 a5 3d
       -0.096210375 -0.29145578 -0.32839826 0.08099677
000040 ae 35 42 3e cc 7c e6 3d 96 d8 5b be 74 73 69 be
       0.1896579 0.11254272 -0.2146934 -0.22797948
000050 a2 24 22 be 23 95 10 bd 24 b3 4f 3e b6 79 e3 3d
       -0.15834287 -0.035298478 0.2028318 0.11107199
000060 15 c7 8d be 85 a5 44 be 37 aa 39 be 8d d5 5c 3d
       -0.2769095 -0.19203766 -0.18131338 0.053914595
000070 ee b6 19 3e 03 c8 2b 3e 24 04 a3 3e 2e fb 77 be
       0.15011188 0.16775517 0.31839097 -0.24216911
000080 12 f4 b0 3c 6c f2 c1 3d 9b 90 cf 3d 33 32 91 3e
       0.021600757 0.094700664 0.10135003 0.2835861
000090 f1 84 ad be 1f c5 eb bc 27 21 8a be 2f 34 43 bd
       -0.3389049 -0.028780518 -0.26978418 -0.047657188
0000a0 d3 fa 5e 3e b3 65 37 be c4 3a 3d 3e cb bb 27 be
       0.2177537 -0.17909889 0.18479449 -0.16380231
0000b0 5f 4b a5 bd e0 1a d4 bc 00 4a 62 be 59 1a 97 3e
       -0.080710165 -0.025891721 -0.22098541 0.2951229
0000c0 d9 ce 00 be 21 49 c4 bd c7 a4 c4 bd ad 06 a7 3d
       -0.12578906 -0.09584261 -0.09601741 0.0815557
0000d0 79 a8 84 be d0 1f 59 be 89 fb 19 be 85 bc a2 3c
       -0.25909784 -0.21203542 -0.1503736 0.019865284
0000e0 55 12 1f 3e d6 fe 42 3e 43 20 b6 3e 9d 32 7a 3e
       0.15534337 0.19042525 0.3557149 0.2443337
0000f0 80 6f 80 bd 6b 8d 85 3e b3 2f 45 3b 63 8d 68 be
       -0.06271267 0.26084456 0.0030088245 -0.22710185
000100 9d 03 07 3e f7 24 27 be 8c 7c 70 3e b3 bb 34 3e
       0.13184972 -0.16322695 0.23485011 0.17649727
000110 ba 4a 86 bd 0c 1e 87 be 72 5d 3b be 34 fd 04 3e
       -0.06557222 -0.2639011 -0.18297365 0.12987214
000120 78 99 2d be 1d ed 57 3c f3 51 34 bc 92 70 a6 3e
       -0.16953075 0.013179091 -0.011005866 0.3250776
000130 85 d7 0d be 08 20 18 3c ec 32 1c be e9 74 83 3e
       -0.13851745 0.009284981 -0.152538 0.25675133
000140 60 c5 68 3e d5 39 57 be 3f d6 49 3e 28 c3 88 be
       0.22731543 -0.21018155 0.19710635 -0.26711392
000150 99 30 75 be a8 a8 88 3e 92 6d 70 3d 6b 81 a4 3d
       -0.2394432 0.26691175 0.058698244 0.08032497
000160 bb 0f 56 be cb fb f8 bc 66 ad 80 be 8e 54 ec 3d
       -0.20904438 -0.030393502 -0.25132293 0.11539565
000170 27 81 7b 3e c1 1c 81 3e 6a 47 dc 3d e2 c8 24 3a
       0.24560986 0.2521725 0.10755809 0.00062860374
000180 08 24 85 be 5d 12 1c be 30 c7 80 3c 7a 27 2e be
       -0.26004052 -0.1524138 0.01571998 -0.17007247
000190 4f 9b 33 3e 51 4b 6e 3e 5a 50 bb ba 89 6d 96 be
       0.17539714 0.23270918 -0.0014290914 -0.29380444
0001a0 7a 2b 4b be c7 c0 91 3e 64 60 5b 3d ea 21 17 3d
       -0.19840804 0.2846739 0.053558722 0.036897577
0001b0 39 24 f1 bd 9a 76 66 3e cc be c3 3d 34 82 a3 3c
       -0.11774487 0.2250618 0.09557876 0.019959547
0001c0 74 cf 56 be 65 94 68 3e da cf 4d 3d f3 95 73 be
       -0.20977575 0.22712858 0.05024705 -0.2378767
0001d0 aa 81 a2 bd 4f d2 40 be 4b cf 1f be 92 31 15 3e
       -0.07934888 -0.18830226 -0.1560642 0.14569691
0001e0 04 6f 76 be f7 2b a1 3e 3d 4e 2d 3e 12 3e e1 3d
       -0.24065787 0.31478855 0.16924377 0.10998167
0001f0 80 dd 69 3d 8e 5a 0d bd 85 ca c9 3b f7 d3 8d 3d
       0.057096004 -0.034510188 0.0061581754 0.06925195
000200 5d 2f 98 be db c7 a6 3d aa 94 12 be 64 76 6a 3e
       -0.29723635 0.08143588 -0.14314523 0.22896725
000210 dd e9 6f 3e 35 c2 0f be 3d 46 ce 3d cb ea a3 3e
       0.23429056 -0.14038928 0.10071991 0.3201507
000220 e7 03 fb bd 84 84 84 3e 1c 0f 41 3e d8 4f 2e 3d
       -0.12256604 0.2588235 0.1885342 0.042556614
000230 ef 81 85 be 65 7c 87 bc 25 7f 1d 3e bc f5 a5 3d
       -0.26075694 -0.016538808 0.15380533 0.08103511

encoder.0.norm.weight f4 [16]
000000 4c a6 78 3f 5d bd 80 3f 4c e0 89 3f 81 76 80 3f
       0.9712875 1.0057789 1.0771575 1.0036165
000010 b8 3e 86 3f 3b 79 80 3f a9 59 7c 3f da 8c 88 3f
       1.048789 1.0036997 0.9857431 1.0667984
000020 89 4e 81 3f 1a 46 86 3f 6e 85 79 3f 1c 8e 74 3f
       1.0102092 1.0490143 0.9746922 0.9552934
000030 ac b8 7f 3f 21 ed 81 3f 69 4d 7e 3f bc a2 7b 3f
       0.9989116 1.0150491 0.9933687 0.9829519

encoder.0.norm.bias f4 [16]
000000 4d b7 55 3d 2b 08 cf 3b e4 0f cd 3c fb a5 db 3b
       0.052176762 0.0063181124 0.025031991 0.006703136
000010 e3 74 87 3b 56 0a b6 ba 28 1b 2a bd 80 03 09 3d
       0.004133807 -0.0013888578 -0.041529804 0.033450603
000020 a3 da b0 3d 36 2a ec ba 50 70 01 3d f3 94 da 3d
       0.08635452 -0.0018017951 0.03160125 0.10672941
000030 6f 0a a9 3c 26 24 ad 3d b0 e7 b0 3d 34 c8 fa bb
       0.020634858 0.084541604 0.08637941 -0.0076532606

encoder.0.norm.running_mean f4 [16]
000000 6c 61 9b ba 40 66 c0 bd 4e 7f 07 be 9a b5 03 3e
       -0.0011854596 -0.09394503 -0.13232157 0.12862244
000010 23 d7 c4 bd c5 7b b7 bd ff 8c 0d 3e fe da 00 bd
       -0.096113466 -0.08959154 0.13823317 -0.031458847
000020 92 29 45 3d 41 2d 43 bd 10 3c 2d 3c 27 d7 80 3c
       0.048135348 -0.04765058 0.010573402 0.015727593
000030 83 82 40 bb dd 38 c2 3c 0c bd 8f 3c 8c 4b b4 3d
       -0.0029374666 0.023708755 0.0175462 0.08803472

encoder.0.norm.running_var f4 [16]
000000 bd fa cd 39 9f bc 2e 3d 46 cb 95 3d 1c af 8d 3d
       0.00039287462 0.04266035 0.07314162 0.06918165
000010 fe 71 21 3d 56 1d 13 3d 5f 0b b4 3d 70 d7 85 3b
       0.039415352 0.03591665 0.08791231 0.00408452
000020 ff dc 3d 3c 19 8e 16 3c ec fd 22 3b 74 ce ad 3a
       0.011588334 0.009189152 0.0024870588 0.001326038
000030 a1 fb a1 3a fd c5 be 3b 11 f5 08 3b e5 01 09 3d
       0.0012358316 0.005821942 0.0020898024 0.033449072

encoder.1.conv.weight f4 [32, 16, 3, 3]
000000 dd 53 6d bd dd 71 83 3d 87 78 7e 3c 24 18 4f bd
       -0.057941306 0.06418202 0.015531666 -0.05056013
000010 f4 6b 6f 3d ac 9c 07 bd 9d ac 0c 3d 6b fb 82 3d
       0.05845256 -0.0331084 0.034344304 0.063956104
000020 f6 ba 48 3d e6 ee 22 bd 99 c2 7a bd ba 04 1f bd
       0.049006425 -0.039778613 -0.06122074 -0.038822867
000030 f5 8e fc bd 7e 76 54 bd 79 6f d6 bd df 98 a1 3d
       -0.123319544 -0.051870815 -0.104704805 0.07890486
000040 db 44 a0 bb b9 3e 93 bd e1 e6 9b bd 83 70 42 bd
       -0.0048910207 -0.07189698 -0.07612396 -0.04747058
000050 8a 66 a4 3c fb 93 a2 3c b9 ea 59 bc 1b 03 22 3d
       0.020068426 0.019845953 -0.013300591 0.039553743
000060 ac 91 82 bd e9 fb 63 bd d9 5f 5c bc 0b e7 79 3d
       -0.06375441 -0.055660162 -0.013450586 0.061011355
000070 64 69 ba 3c 8f bf a6 3d a8 50 75 3d 35 44 3c bd
       0.022755332 0.08142006 0.059891373 -0.045963485
000080 f9 e2 99 3d df 72 eb bc b8 ca 6e 3d 96 58 5f 3d
       0.07513995 -0.028741298 0.058298796 0.05452784
000090 97 c6 a6 bd 67 f9 0f bd 9c 94 8d 3b 6f 6a dc bd
       -0.08143347 -0.035149958 0.004320694 -0.10762488
0000a0 4f 0d 17 be 78 a0 51 bc a9 dd 50 bd 87 24 5a bd
       -0.1475117 -0.012794606 -0.05099264 -0.05325749
0000b0 64 ee 4e 3d 2a 61 76 ba 5d 68 82 bd 72 75 5b 3b
       0.050520316 -0.0009398634 -0.06367562 0.003348675
0000c0 3c 11 36 bd 3f ae 08 bd a9 b9 f5 3b 91 4f 56 3c
       -0.04445003 -0.0333693 0.007498939 0.013080494
0000d0 f1 bb 88 3d 75 54 11 bd c4 3f a7 bc 5c 46 78 bd
       0.06676472 -0.035480935 -0.020416148 -0.060613975
0000e0 87 f4 e6 3c d2 8b 21 3d f5 e8 b6 bd fa d0 aa bc
       0.028192772 0.039439984 -0.08931152 -0.0208516
0000f0 80 b9 5f bd c1 ab 5d bd 1c 93 63 bd d6 75 4b 3d
       -0.054620266 -0.054118875 -0.055560216 0.049672924
000100 13 01 c9 bc be b0 82 3c b3 32 a2 bd fe 44 d2 bd
       -0.024536645 0.015953418 -0.07919826 -0.102670655
000110 b2 0d 3e bd 67 cd 53 3d 5f 21 32 bc 19 73 c3 bd
       -0.04639978 0.05170956 -0.010872214 -0.095434375
000120 57 65 50 3d 43 bd 6d bd 9a fb e8 bc f4 30 62 3d
       0.050877895 -0.058041822 -0.028440285 0.055222467
000130 fc bf 82 3d 0f 7b 5d 3d 46 4d 64 bd bc 1e 19 3d
       0.06384274 0.054072436 -0.055737756 0.037382826
000140 61 4b a6 bb 98 d8 16 bd dd b7 f3 bc 5b de 52 bd
       -0.005074904 -0.036827654 -0.029750759 -0.051481586
000150 aa 16 89 bd 82 65 20 be e9 88 76 bd b7 74 4f 3d
       -0.06693776 -0.15663722 -0.06018916 0.050648417
000160 6f 6b 14 bd de 1b aa bb c7 42 a9 3c b7 70 ce bc
       -0.03623527 -0.0051913103 0.020661725 -0.025200231
000170 b1 23 9f bd 2e cf 8b 3d a4 cd ba 3d 02 16 e6 3c
       -0.077704795 0.06826626 0.09121254 0.028086666
000180 b0 eb 81 3d cf a8 4e 3d 6c c0 fe 3c d0 86 0c bd
       0.06343782 0.050453957 0.031097613 -0.034308255
000190 f8 37 cc bd 65 74 0e bd 0a e0 6c bd b0 72 e0 bc
       -0.09971613 -0.03477897 -0.057830848 -0.027398437
0001a0 fa 5d 44 3c 34 e6 a0 bc 92 d1 a9 bc 71 12 4f bd
       0.011985296 -0.01964102 -0.020729814 -0.050554696
0001b0 02 15 1d bd 10 d7 69 3c ef 9a 85 bc 70 8a 2f bc
       -0.038350113 0.014272466 -0.01630923 -0.010714158
0001c0 99 cb 54 3d 4c 31 68 3d 6b 90 ad bd ed 8a 9b bd
       0.05195198 0.05668764 -0.08474811 -0.07594857
0001d0 53 1b 91 bd ed a4 2a bc 6d ad 20 3d 87 6a c7 bc
       -0.0708529 -0.010415298 0.03922789 -0.024342788
0001e0 61 9e 52 3d 3b e1 39 3d 33 88 44 bd b6 33 2d bd
       0.051420573 0.045380812 -0.047981452 -0.042285644
0001f0 59 c1 3e bd 4f 98 50 bd 5d 1b c6 3d 53 be 8f 3c
       -0.04657111 -0.050926503 0.09673188 0.017546808
000200 7b b7 1d 3d 89 38 67 bd 62 f4 8a 3d 84 fd ee 3c
       0.03850506 -0.0564504 0.067848936 0.02917362
000210 ea 0b 43 bd 5c be ce bc 2b 2d 55 3d 54 2a a0 3d
       -0.047618784 -0.025237255 0.05204503 0.078205734
000220 13 c8 68 3d 43 99 88 3d 08 1f 0d 3d b7 9a 5c 3b
       0.05683143 0.06669857 0.03445342 0.0033661553
000230 e9 44 03 bc db f7 9e bc d7 ae 84 3d 60 31 45 3d
       -0.008012035 -0.019405296 0.064786606 0.04814279
000240 6d d6 19 bc 19 0a db bc 7d d1 0b 3d b8 ee ae 3c
       -0.009389502 -0.026738213 0.03413533 0.021354064
000250 fe 46 9f 3c 42 41 4b bd 31 46 32 bd 0e 7f ad bd
       0.019443031 -0.04962278 -0.04352397 -0.084714994
000260 0e f3 01 bd 84 52 37 3c 62 6a de 3c 53 0b 92 bc
       -0.031725936 0.011189107 0.027150337 -0.017827665
000270 08 69 1f b9 2b 18 c0 bd ea 07 f8 3b 48 34 83 3d
       -0.00015202549 -0.0937961 0.007569303 0.06406456
000280 eb 87 73 3d c7 6f 73 3d bd 48 86 3d 69 6d 1b bd
       0.059455793 0.05943277 0.065568425 -0.03794614
000290 b4 ad 76 3d 36 55 90 bd 30 f8 03 bd 02 cf 65 3d
       0.06022425 -0.07047503 -0.032219112 0.05610562
0002a0 52 ec 27 bd 23 97 e5 bb 02 4d a0 3d fa c3 43 3b
       -0.040996857 -0.0070065423 0.07827188 0.002987145
0002b0 41 a4 24 bc 8f 8c ae bd 6f ab 5e 3d b6 01 8c 3d
       -0.010048927 -0.08522903 0.05436271 0.06836264
0002c0 ce d3 b2 3c 51 79 9b 3d d7 cc 8b bc d3 fd 12 3d
       0.021829512 0.07591499 -0.017065449 0.035886597
0002d0 16 c3 6e 3d 80 6b a1 bb 2e 9a ef bc 3a fc b1 bd
       0.058291517 -0.004926145 -0.029248323 -0.086906865
0002e0 90 6d 40 3d 69 44 c0 bc 9f 3d c5 bd 88 48 b9 bd
       0.046979487 -0.02347012 -0.09630894 -0.09047037
0002f0 00 37 b6 3d 84 cf 09 bd 82 44 97 bc 21 49 0d 3c
       0.08897209 -0.033645168 -0.018465284 0.008623392
000300 ba e2 b5 bc 8b ab 73 bc a7 e9 0c bd a3 f8 22 3d
       -0.022202838 -0.014872442 -0.034402516 0.0397879
000310 55 ef 88 3d 7d d3 85 bc 97 fd 4b bc 3f 5e 84 3d
       0.06686274 -0.016336197 -0.012450597 0.064632885
000320 0f 16 85 bd 82 17 11 bd 9f 10 ef 3c bb 0e 4f bd
       -0.06498348 -0.03542281 0.02918273 -0.050551157
000330 d5 cf 85 bc 7e a7 bc 3d f0 b5 ff bc d2 57 9d 3d
       -0.016334454 0.09211634 -0.031214684 0.07682766
000340 cb b1 6a 3d 93 88 7f 3c cc 7c 60 3d e1 c3 7d 3d
       0.057298463 0.015596527 0.054806516 0.061954383
000350 2a bc 87 bd 1a 02 d0 bd 1c 77 3b 3d f8 13 92 bd
       -0.06627686 -0.10156651 0.04576789 -0.07132715
000360 bc be 13 3d 46 d3 56 3d 52 1d 43 3b 5f fb 15 bd
       0.03607057 0.05244758 0.0029772115 -0.03661668
000370 a3 81 f5 3b a2 c9 0f bd cc f1 c4 3d 07 21 97 3d
       0.0074922605 -0.0351044 0.096164316 0.07379346
000380 ed 74 aa bb 90 6c 93 3d 66 83 9e bd c5 ae 50 bd
       -0.005201927 0.07198441 -0.07739906 -0.050947923
000390 a1 cb 7f bd 98 8c a9 3c 5c 6d a6 3d 3b c3 bc b9
       -0.062450055 0.020696923 0.081263274 -0.00036003612
0003a0 b1 25 1f 3d 43 e5 17 3d af 9e 23 bd 36 7d 98 bc
       0.038854305 0.037083875 -0.039946254 -0.018614393
0003b0 7b 81 4b bd 87 68 9d bb db c2 0e bc 7f 88 38 3d
       -0.04968403 -0.0048037204 -0.008713449 0.045052048
0003c0 7f e4 b3 bc fb 54 3e bc 16 ea 7f bd 65 e8 88 3d
       -0.021959541 -0.011616941 -0.0624791 0.06684951
0003d0 7a a6 e8 3a 59 29 a2 bb 83 03 6d 3d e6 5b ba 3c
       0.0017749809 -0.0049487767 0.057864677 0.022748899
0003e0 db c3 29 bd cf d4 99 3d a0 75 57 3d ca 43 7a bd
       -0.041446548 0.07511293 0.05260241 -0.061099805
0003f0 2e c4 63 3b f4 0c 67 3c 33 1a b4 bd 3a f4 e3 bc
       0.0034754383 0.014102209 -0.087940596 -0.027826417

encoder.1.norm.weight f4 [32]
000000 99 bc 7c 3f da d5 79 3f 44 19 81 3f 5d cc 84 3f
       0.9872528 0.97591937 1.0085835 1.0374867
000010 44 22 80 3f e6 c8 76 3f 0c 87 83 3f 08 3a 7f 3f
       1.0010457 0.96400297 1.0275588 0.99697924
000020 0d 54 81 3f b4 a4 7d 3f 8e 73 7a 3f 40 0a 7d 3f
       1.0103775 0.9907944 0.9783257 0.98843765
000030 8d 27 80 3f 9f e8 83 3f ca 37 7f 3f 9d 6e 82 3f
       1.001207 1.0305365 0.996945 1.0190006
000040 b8 78 7e 3f b0 fd 82 3f e7 c4 85 3f bf 82 7a 3f
       0.9940295 1.0233669 1.0450715 0.9785575
000050 a5 c3 7a 3f c3 41 77 3f 70 0e 86 3f 9d a7 78 3f
       0.9795478 0.9658472 1.0473156 0.9713076
000060 7f 93 77 3f a4 f8 84 3f 1c 63 77 3f 0b d7 7f 3f
       0.96709436 1.0388379 0.96635604 0.99937505
000070 42 c4 84 3f 34 bb 79 3f 44 11 83 3f a6 db 78 3f
       1.0372393 0.97551274 1.0239644 0.97210157

encoder.1.norm.bias f4 [32]
000000 e9 46 02 3d 96 72 f0 3b 86 92 57 3d 9c f9 01 3d
       0.031805906 0.0073378785 0.05262997 0.031732187
000010 c1 9f 10 3b 9b c0 a0 3c 9e b8 48 3d e6 21 2b 3c
       0.0022067877 0.019623091 0.04900419 0.010445094
000020 7d 2a 70 bd 3c 61 7a bb 67 74 19 bc 6f c0 e0 bb
       -0.05863427 -0.003820493 -0.009366131 -0.0068588774
000030 36 e0 84 3c 94 31 d0 3c e2 13 fa b7 8b e3 f4 3d
       0.016220193 0.025414266 -2.9811581e-05 0.11957463
000040 38 75 39 3d dc 36 91 3c 7a 83 b2 3c 8b ab ba 3c
       0.045277804 0.017726354 0.021791209 0.022786876
000050 80 4c 57 bd ad 12 00 3d 95 c2 2a 3d af 3a f7 bc
       -0.05256319 0.03126781 0.041689474 -0.03017935
000060 35 84 67 bd ff 71 03 3d a9 a6 ed 3c a4 5a 85 3d
       -0.056522567 0.032091137 0.029010134 0.06511429
000070 4c 46 80 bc 4e a2 62 3d b7 b5 4e 3d 53 51 9b bc
       -0.01565852 0.055330567 0.050466266 -0.018959677

encoder.1.norm.running_mean f4 [32]
000000 73 14 c6 be 25 8b 5a 3e f2 4e db 3c 1e 25 46 3e
       -0.38687477 0.21342142 0.026771042 0.19350097
000010 47 15 85 be 2b c1 5f 3e 5a aa 73 be d0 e5 ff 3d
       -0.25992796 0.21851031 -0.23795453 0.12495005
000020 98 89 45 be 0e e1 d0 3b b6 ef 4a be cf 7e 7f 3e
       -0.19290769 0.006374485 -0.19818005 0.24950717
000030 d8 69 93 be 62 ca ff 3d 3a 3c 5e 3e c7 9f 43 3d
       -0.2879169 0.12489773 0.21702662 0.047759797
000040 3b 59 59 3d 5e 1d 21 3e eb 2d 9e 3d 89 3a 5f be
       0.053063612 0.15733859 0.07723602 -0.21799673
000050 83 0d 0c 3c 5c 7e 54 3e 8b ac 29 be 76 ba cb be
       0.008548143 0.20751327 -0.16569726 -0.39790696
000060 d1 8b 8c be 87 ae 9b 3e 00 88 85 be 5e 3d f7 3c
       -0.2745042 0.3040659 -0.26080322 0.03018063
000070 30 d1 bf be f6 da ad be 82 dc 1f bf 05 3b c8 3d
       -0.37464285 -0.33956116 -0.62445843 0.09776882

encoder.1.norm.running_var f4 [32]
000000 b7 ce 84 3f 7f 62 ec 3e 42 f3 68 3f 42 7a d8 3e
       1.0375584 0.46168897 0.9099618 0.42280775
000010 f7 dc 00 3f 2b 4b 1d 3e e8 4e f1 3e bc 44 cf 3e
       0.50337166 0.15360706 0.47130513 0.40482128
000020 0a 44 96 3e a6 7c fa 3e 00 e4 a5 3e e0 6e 24 40
       0.29348785 0.48923224 0.32400513 2.5692673
000030 7a 08 ba 3e 71 41 46 3e c7 eb 25 3f 14 4d da 3e
       0.36334592 0.19360901 0.6481289 0.4263693
000040 22 db e4 3e dc 4f a6 3e 4d b2 96 3e 32 71 d1 3e
       0.44698435 0.32482803 0.29432908 0.40906674
000050 58 10 56 3f 35 0a 13 3f ec 71 11 3f d1 dc 7d 3e
       0.8361869 0.5743745 0.56814456 0.24791266
000060 11 5e c4 3e 6a 39 8b 3f 58 7f 29 3f 6c 0e 11 3f
       0.38353017 1.0876896 0.66209936 0.5666263
000070 5b 8b d4 3e 39 c5 8d 3e 2e 50 f4 3d b3 e0 c7 3e
       0.4151257 0.2768953 0.119293556 0.3903862

encoder.2.conv.weight f4 [32, 32, 3, 3]
000000 15 84 37 3d 30 7e c2 3b c0 05 35 bc f7 06 33 3d
       0.044803698 0.005935453 -0.011048734 0.043707814
000010 7e 4a 29 3c 2d 2e 13 3d 10 ab 28 3d 1c 18 14 3b
       0.010332702 0.03593271 0.041178763 0.0022597378
000020 e8 66 9f bc a2 4e 01 3c 83 b4 21 3d dd 4b d9 bc
       -0.01945825 0.007892283 0.03947879 -0.026525432
000030 6a 5a 21 bd b5 c1 4d bd 57 69 39 ba 1c a4 f6 bc
       -0.039392866 -0.05023356 -0.0007072887 -0.03010755
000040 9a d6 67 3c b9 f9 2c bd 83 17 4c bc 7b ec 36 3d
       0.014150286 -0.04223034 -0.0124567775 0.04465912
000050 ad 70 7e 3c 9b b6 56 3d 5a a2 8b 3c 10 ad 26 3d
       0.015529794 0.05242024 0.017045189 0.04069239
000060 c8 c7 14 3d de df 02 bd e4 95 81 bb 14 3b 97 bb
       0.03632334 -0.031951778 -0.003954636 -0.004615197
000070 7d 55 2f 3c 47 b4 dc bc c3 9d fc 3c fb e8 74 bb
       0.010701534 -0.026941432 0.030836945 -0.0037370312
000080 a7 12 d1 bc fb 91 2d 3d 63 ea 7c 3d 1f 94 c1 3c
       -0.02552159 0.042375546 0.061746966 0.0236302
000090 13 4a e3 bc 16 6f 82 3c 3b 4d 02 3d bc 45 9e bb
       -0.027745282 0.01592211 0.031811934 -0.0048300903
0000a0 5a 50 c8 3c cf e4 78 3d d6 e7 a5 bc e0 91 00 3d
       0.024452377 0.060765084 -0.02025215 0.031389117
0000b0 fa 76 46 3d e3 82 14 bd ae 7b d5 bb 21 75 38 3d
       0.04845331 -0.036257636 -0.006514988 0.045033578
0000c0 2a 2e 57 bb 3d 88 f5 3c ea d4 26 3d b1 34 0a 3b
       -0.0032833912 0.02997219 0.040730394 0.0021088535
0000d0 bc 97 e5 3b 29 ec 2b 3c c6 7e d7 b9 e0 25 20 3c
       0.0070066135 0.010493317 -0.0004110245 0.009774655
0000e0 df 5b 1e 3d 76 87 67 3a e8 76 d5 3c 09 16 cd bc
       0.038661834 0.0008832136 0.026057675 -0.025034921
0000f0 66 ae 43 bd b8 29 03 3d d5 91 06 bd 9c 99 43 3d
       -0.04777374 0.032022208 -0.03285392 0.047753915
000100 5c 20 1a 3d 2f 58 c7 3c f8 96 0f bd 54 b4 30 bd
       0.037628517 0.024334041 -0.035056084 -0.043140724
000110 44 04 a3 bb f8 de a7 3c fd bb 85 3c b9 79 92 bc
       -0.0049748737 0.020492062 0.016324991 -0.017880308
000120 dd 69 aa 3c 8e 69 43 bb bf bc 12 bd 89 a7 75 3d
       0.020802433 -0.0029817554 -0.035824534 0.059974227
000130 c6 45 a3 3d ef 9c a8 3c 43 50 34 bd d3 1a 80 3c
       0.079722926 0.020582644 -0.044021856 0.01563779
000140 4a 08 0b bd 5e bf d0 bc 84 a4 34 bd a5 bf 3c 3d
       -0.033943452 -0.025481876 -0.044102207 0.046081204
000150 c9 fb 1b bc e5 4e 6e 3c 36 0b 2d bc 3b 6a 38 3c
       -0.0095204795 0.014545177 -0.010561755 0.011255796
000160 5a 2f 47 3b a0 e8 42 3d bc 1b 35 3d 85 77 38 3d
       0.0030393214 0.04758513 0.044215903 0.045035858
000170 0f 40 55 bc dd 03 30 bd 34 15 c9 bc 31 dc 72 bd
       -0.013015761 -0.042972434 -0.024546243 -0.059292022
000180 3e a2 2f 3b 7a 0c a8 bd 12 04 64 bd 37 d7 01 bd
       0.0026799585 -0.08205505 -0.055667944 -0.031699385
000190 1b 72 74 bc 88 41 e8 bc e2 46 52 3d 98 9b 3e 3d
       -0.014919783 -0.02835156 0.05133713 0.046535105
0001a0 58 b7 bd bb b5 70 3f bd 97 c1 26 3d 8e 28 85 3c
       -0.0057896785 -0.046738345 0.040711965 0.01625469
0001b0 f9 f5 bf 3b a8 38 4f 3c 2c 6d 31 3c e1 fa 1f bc
       0.0058581796 0.012647785 0.010829251 -0.009764404
0001c0 6b 46 2a 3c 67 ae 94 bd 7c 94 65 3d b5 0c be bc
       0.0103927655 -0.07259827 0.05604981 -0.023199419
0001d0 5f 81 4f bd ff e3 92 bc fe ec 56 3c 9e a8 c8 3c
       -0.050660487 -0.017930983 0.013118027 0.024494465
0001e0 97 5a 3e bd 1f 8a 70 bc ef 1b 08 bd a7 b0 82 3d
       -0.046473112 -0.014681368 -0.033229765 0.0638135
0001f0 14 82 ed bc ca 75 82 3d f1 93 37 3d f5 81 25 3d
       -0.02899269 0.06370123 0.044818822 0.04040714
000200 32 9b b5 3c 52 79 0b bd 3e b2 a3 3c d6 6c 97 3c
       0.02216873 -0.034051247 0.019982453 0.018484514
000210 2d ef 63 bd a1 8d ab 3c ee 28 01 ba eb e5 4b bd
       -0.055648018 0.020941557 -0.00049270585 -0.049779814
000220 e8 4b d7 bb fd 0c 28 bd f4 7d a4 3c 1b 1f f5 38
       -0.006570328 -0.04102801 0.02007959 0.00011688304
000230 f9 82 35 bd 0d 68 4c bc 7a 00 0e bd 2f 00 7c 3c
       -0.04431436 -0.0124759795 -0.034668423 0.015380903
000240 dd 47 d1 bb 58 ee 84 3d 78 51 b7 ba f9 32 98 bd
       -0.0063867406 0.06490773 -0.0013986072 -0.07431597
000250 94 51 c3 bc 5c f0 d5 bc c7 ed f7 3c e7 5b 7a bd
       -0.02384261 -0.026115589 0.030264748 -0.0611228
000260 05 8e dc bc 82 51 66 3d d4 35 41 bb 7f db b9 b8
       -0.026923189 0.056230076 -0.0029481547 -8.862372e-05
000270 f1 50 24 bd 99 bb 80 bd d9 b1 dd bc c2 23 2c 3d
       -0.040116254 -0.062857814 -0.027062343 0.04202629
000280 1b 3b 06 3c d6 f7 40 3d 14 38 47 3c 77 c6 fe bb
       0.008192803 0.047111355 0.012159366 -0.0077751237
000290 ea 78 28 bd 49 55 6b bd 8e f3 71 3c 5a 6b 92 bd
       -0.041130938 -0.05745438 0.014767541 -0.07149382
0002a0 2b 13 8d 3c e7 8d cb 3b 50 c4 3a bb 9c e9 5a 3d
       0.017221054 0.0062119844 -0.002849836 0.053445444
0002b0 f5 53 3c 3d 6e 90 38 bd cc ed 18 3d ce ba 31 3d
       0.045978505 -0.045059614 0.037336156 0.04339104
0002c0 f4 49 8f bd 14 57 20 bc ce ee 81 bd 44 a8 a5 bd
       -0.06996527 -0.009786386 -0.063443765 -0.08088735
0002d0 c8 2d a0 bc c1 08 32 bd eb 22 9d 3c 1d c3 7f 3d
       -0.01955308 -0.04346538 0.01918169 0.062441934
0002e0 ac 6e f7 bc 20 b0 76 3c 2e c8 29 3d 58 0d 57 3d
       -0.03020414 0.01505664 0.04145067 0.05250296
0002f0 9d 09 d6 bb e1 b2 13 bd de 4b 5c 3d f1 55 3a bb
       -0.0065319077 -0.036059264 0.05378329 -0.0028432573
000300 29 ff 67 bc 7b f1 8c bb be 0a 8a 3a 45 e4 ef bb
       -0.014159956 -0.0043012477 0.0010531766 -0.007320913
000310 9f 96 8d bc ee 79 90 bd a5 b6 a6 bb 02 ed 72 bd
       -0.017283736 -0.07054506 -0.005087691 -0.05930806
000320 4b 8f 9a bd e9 e7 c5 bc 76 ca 8b bd 5c 62 65 bd
       -0.07546862 -0.024158435 -0.06825726 -0.056002006
000330 b4 60 00 3c 59 04 ae bc 3c 8a 9d 3d d6 26 72 3c
       0.007835556 -0.021242307 0.07692382 0.014779767
000340 84 99 c4 3d 22 91 4c 3d 76 14 89 3d 0f d2 08 bd
       0.09599593 0.049943097 0.06693356 -0.033403452
000350 50 f4 25 bd 42 2c 9e 3c 0a d1 79 bd 23 c1 77 bd
       -0.040516198 0.019308213 -0.06099037 -0.060486924
000360 a7 8b d9 3b 7f 43 22 bd b4 e7 80 3c 74 f9 c6 3c
       0.0066389623 -0.03961515 0.015735485 0.02428887
000370 ee 39 88 3d 9c b5 9b 3d 76 29 15 3c 08 bf e0 3b
       0.06651674 0.076029986 0.009104123 0.00685871
000380 ca d3 23 3d 20 c2 4d bd 21 e0 9f 3c f9 cc 8e bd
       0.0399969 -0.05023396 0.019516053 -0.06972689
000390 41 2c 2a 3d f9 54 08 bc af 8d 0b 3d 55 50 58 3d
       0.04154611 -0.00832104 0.034070667 0.052810986
0003a0 9a c4 09 bd 8d b6 e0 3c 2e 8a 21 bd e2 11 b3 3b
       -0.03363476 0.027430797 -0.03943842 0.0054647783
0003b0 c2 31 91 3c b2 19 58 3c 99 b8 9f 3c 0f 66 ef 3a
       0.017723922 0.01318972 0.019497203 0.0018264669
0003c0 d3 eb 80 3c 2c f0 85 bd d9 f9 99 bd 4d dc 2d 3d
       0.01573745 -0.0653995 -0.07518358 0.042446423
0003d0 5f 47 23 3c 48 0f b3 3d 7d 5c 88 3d 49 9e 6d 3d
       0.009965747 0.08743149 0.06658266 0.05801228
0003e0 37 60 0e bd 63 74 0c 3d 69 e4 68 bd 2b ac 8f bd
       -0.034759726 0.034290683 -0.056858454 -0.0701526
0003f0 1d 2c bb bc 1a e3 e8 3c 4b b0 0e 3d 51 dc 2f bc
       -0.022848183 0.028428603 0.034836095 -0.01073368

encoder.2.norm.weight f4 [32]
000000 18 cf 81 3f 58 01 78 3f 6f 05 79 3f 99 63 85 3f
       1.0141325 0.9687705 0.97273916 1.042102
000010 18 f5 81 3f e7 4b 81 3f 83 ca 81 3f 14 e2 79 3f
       1.0152922 1.0101289 1.0139927 0.9761059
000020 08 eb 80 3f 6e e0 77 3f ea 17 7e 3f 3f e0 7f 3f
       1.0071726 0.9682683 0.9925524 0.9995155
000030 8f ae 85 3f df a4 77 3f 68 b7 7a 3f 45 da 86 3f
       1.0443896 0.9673595 0.97936106 1.053536
000040 9a 0e 80 3f ba 1e 81 3f 40 6c 74 3f 5f 16 79 3f
       1.0004456 1.0087502 0.95477676 0.9729976
000050 5d 80 7d 3f a8 25 80 3f 95 09 8a 3f c4 a8 82 3f
       0.9902399 1.0011492 1.0784174 1.0207753
000060 c4 0d 80 3f 12 26 80 3f bf 54 80 3f 03 26 76 3f
       1.0004201 1.0011618 1.0025862 0.9615175
000070 d5 c0 7c 3f 01 40 7d 3f 1f c8 80 3f f9 95 7c 3f
       0.9873174 0.9892579 1.0061072 0.9866634

encoder.2.norm.bias f4 [32]
000000 15 7c 4f 3d b4 85 90 bc ba 59 6a 3d 76 a4 0d 3d
       0.050655443 -0.01764188 0.057214476 0.03458067
000010 34 37 18 3d a6 ae 84 bd fb f5 78 bc 00 e0 88 3c
       0.03716202 -0.06478624 -0.015195365 0.016708374
000020 5f 24 5d 3d e3 a6 e1 ba db 5b 2b bd 10 79 29 bc
       0.053989764 -0.0017215874 -0.041835647 -0.010343805
000030 a2 66 9f bc 04 a5 9d bd 81 ba 2f 3d dc 20 14 3d
       -0.019458119 -0.0769749 0.042902473 0.03616415
000040 16 b0 36 3d fc 19 2c ba 62 1b 3f bd 57 b3 63 bc
       0.044601522 -0.0006565151 -0.046656974 -0.013897738
000050 6f 6e ba 3c b5 0b 28 3c b5 76 78 3c 30 1b 26 3d
       0.022757737 0.010256697 0.015165021 0.04055327
000060 0c 13 58 bc 6c be 9a bc 9c 38 22 3d 4e 8e 15 bb
       -0.013188135 -0.018889628 0.03960477 -0.0022820416
000070 17 7f 04 3c d1 e3 57 3d 06 0e 0f 3c df ad 22 bd
       0.008086941 0.052707497 0.008731371 -0.039716598

encoder.2.norm.running_mean f4 [32]
000000 61 b8 83 3d 8a 5c 81 bd 37 b4 a7 be 7e ae ac bc
       0.06431652 -0.063164786 -0.3275468 -0.021079298
000010 e4 0e 07 bd ec 1c 63 3e 20 4b 36 be 08 e7 61 3d
       -0.032973185 0.22179002 -0.17802095 0.05515197
000020 cd 02 78 3c 8e 6b 51 bd 47 0b 8e bc cc 98 30 bd
       0.0151373865 -0.051127963 -0.017339362 -0.04311447
000030 9f 0f c4 3d 2f b4 01 bd 6c 09 50 3e e7 eb 92 3d
       0.09573292 -0.031665977 0.20316094 0.07173901
000040 1f 1a a2 be 39 dd f0 3d 09 2d 95 be aa 8c a0 3e
       -0.31660554 0.11760945 -0.29135922 0.31357318
000050 01 ba 83 3e 85 77 8f 3e 7a 9c 96 bb 7d fb 44 be
       0.25727847 0.28020874 -0.00459629 -0.1923656
000060 5d 11 1b be d0 88 f5 bd 1d 27 02 bf 18 dc 9b be
       -0.15143342 -0.119889855 -0.5084093 -0.30441356
000070 76 96 fa 3c 2b 37 72 bc e5 7b 99 be 74 aa 0d 3e
       0.030589323 -0.014783661 -0.29977337 0.13834554

encoder.2.norm.running_var f4 [32]
000000 99 2f 2b 3f 36 66 a9 3f 27 01 b8 3f 94 65 14 3f
       0.66869503 1.3234317 1.4375352 0.57967496
000010 19 09 56 3f 47 b5 19 3f 2d a7 56 3f 99 c9 6e 3f
       0.8360763 0.6004223 0.8384884 0.93276364
000020 59 e4 46 3f 63 a7 33 3f 60 e6 db 3e d6 61 2e 3f
       0.7769218 0.70177287 0.429492 0.68118036
000030 ab 21 39 3f 5a 24 75 3f d0 07 9b 3f 56 72 6f 3f
       0.72317 0.95758593 1.2111759 0.9353384
000040 b1 a4 41 3f 5d 01 4c 3f 9a e3 ba 3e 40 fc 97 3f
       0.75641924 0.7968958 0.3650177 1.1873856
000050 b7 6b 82 3f 40 3f 51 3f d0 96 f9 3e 8b 02 84 3f
       1.0189122 0.81737137 0.48747873 1.0313276
000060 7c f7 e1 3e 2b 28 1b 3f 75 91 e4 3e b2 3d 96 3f
       0.44134128 0.60608166 0.44642225 1.1737578
000070 50 78 3f 3f 25 36 d5 3f ca 54 4b 3f 35 9f 74 3f
       0.7479296 1.6657149 0.7942625 0.9555543

encoder.3.conv.weight f4 [32, 32, 3, 3]
000000 da 82 cf bc 1e be 10 3c 2c 1a 34 bd cb d0 bf bc
       -0.02533095 0.00883439 -0.043970272 -0.02341499
000010 96 d4 7d 3c 61 00 3a 3d ea 8f b1 bc ba 8a 36 bd
       0.015492579 0.045410518 -0.021675069 -0.044565894
000020 7a 97 5e 3d bd 6c a1 bc dd 86 2d bd 84 f9 54 bb
       0.054343678 -0.01970517 -0.042364944 -0.0032497356
000030 b4 26 c2 bc 66 cf 21 bd ea 64 8f bd 7c e3 55 bd
       -0.023700096 -0.03950443 -0.0700167 -0.0522189
000040 c0 04 00 3c 6e c4 8e bd 2e 8e 46 bd 85 04 33 3d
       0.0078136325 -0.0697106 -0.048475437 0.043705482
000050 fc b4 0a bd 08 33 ce 3b 93 25 2a bc 76 71 3b bd
       -0.033864006 0.0062927045 -0.010384935 -0.0457625
000060 6b 18 14 3c fa 8a 79 3d 57 6e a2 bd 12 ad ad bb
       0.009039025 0.060923554 -0.07931202 -0.0053001726
000070 bd d9 6d bd cc 88 87 bd 76 8c f7 3c a4 23 2f bd
       -0.05806898 -0.06617889 0.030218344 -0.0427586
000080 9d 7a e9 bc c4 e6 e8 3c 99 94 83 bd 56 c8 33 3d
       -0.02850085 0.02843035 -0.06424827 0.043892227
000090 02 54 4f 3c 1d a5 6a bd 19 8c 03 bd c9 4b 32 bd
       0.012654306 -0.05728637 -0.03211603 -0.043529306
0000a0 e7 72 c6 bc 33 01 0f 3d 7b 99 4d 3d 6a 6c d1 bb
       -0.024224712 0.034913253 0.0501952 -0.006391098
0000b0 26 45 6e bd 5a d9 2a 3d 25 a8 24 3d 23 b0 11 3d
       -0.058171414 0.04171119 0.040199418 0.035568368
0000c0 7d 3c 80 bd cc 06 d3 3c 6c 1c 7a 3c 15 08 53 bd
       -0.06261537 0.025760077 0.015265565 -0.05152138
0000d0 ab 89 8d 3d 0b 09 fc bc 55 b1 43 bd 20 32 c2 bc
       0.06911024 -0.03076603 -0.04777654 -0.023705542
0000e0 0d 39 47 3d fd ff 90 3b 18 2b 98 bd 51 0a c7 bb
       0.048638392 0.0044250474 -0.074300945 -0.006074228
0000f0 fd 0e 0b bd 8f 5b 39 3b 07 cf 46 3d 1e 67 03 3d
       -0.03394984 0.0028283333 0.04853728 0.032080762
000100 c2 b9 9e bc f2 e7 29 3c 7d c9 99 3c 77 3b 70 bc
       -0.019375686 0.0103702415 0.018772835 -0.014662615
000110 4f 9f 74 bd c6 0c ed 3b 7f ba 85 3c cc 8f d7 bc
       -0.05972224 0.0072341887 0.01632428 -0.026313685
000120 67 46 0b 3d 32 eb 09 3d 48 07 22 3d f6 6a 26 bd
       0.034002688 0.033671565 0.039557725 -0.04062935
000130 3c 0b 14 3d af b0 5d bd fb f2 ea 3c ea f0 32 bc
       0.036143526 -0.054123577 0.028680315 -0.010921696
000140 7d 8f ba 3c af 66 57 bd 85 70 80 bc 8e 4e c2 bb
       0.022773499 -0.05258816 -0.015678653 -0.0059297746
000150 52 fb f8 3c 64 85 37 bc 65 5d 5c bc 28 e9 aa bc
       0.030393276 -0.011201236 -0.013450001 -0.02086313
000160 4e 1e ce bc 60 ee 61 bd d7 fc 8c 3c 5c ae 80 3c
       -0.025160935 -0.055158973 0.017210407 0.015708141
000170 29 9c f0 bc db 86 6d bd 30 4c a6 3d e4 8b 52 bd
       -0.029371338 -0.057989936 0.0812 -0.05140294
000180 e4 7c e5 bb 0f 55 60 3d 92 d5 ef 3c 02 71 28 bc
       -0.0070034135 0.05476862 0.029276643 -0.010280849
000190 92 3e e8 3c 87 9d 71 bc 14 f3 26 3d 87 c4 a8 3d
       0.028350148 -0.01474703 0.04075916 0.082406096
0001a0 af ce 99 bd 43 5e d8 3c bb 27 b2 3d fb d1 57 bc
       -0.07510125 0.026412135 0.08698984 -0.013172622
0001b0 83 e4 bd bc 7d 55 e0 3c 04 8d 38 bb 33 5b 5a bd
       -0.023180252 0.027384514 -0.0028160224 -0.05330963
0001c0 fb 35 fc 3d 8b 41 2d 3d 12 d2 8f bd e1 90 a3 3d
       0.123149835 0.042298835 -0.070224896 0.07986618
0001d0 1d fc 82 bb b3 5a fd 3c 25 2c 2c 3d 49 37 91 bc
       -0.0039973394 0.030927038 0.042034287 -0.017726557
0001e0 29 86 26 bd f6 f8 7d bd e0 1b a4 bc f1 48 dc bb
       -0.04065529 -0.062005006 -0.020032823 -0.0067225625
0001f0 06 c3 84 bd 01 b7 e1 bc 56 67 58 bd fc 3b ee bc
       -0.0648251 -0.027553083 -0.052832924 -0.029081337
000200 81 66 3c 3c 44 bc 06 3d f6 b8 b3 3c 91 9c e8 3c
       0.011499048 0.032894388 0.021938782 0.02839497
000210 cb 46 8e 3b 51 9e a1 bb 59 15 7f bc 28 e7 7c bc
       0.0043419353 -0.004932203 -0.0155690545 -0.015435971
000220 fd 6a 62 3d 59 fc 89 bd 9c fe 23 3d f6 4b e4 3c
       0.055277813 -0.067375846 0.040037736 0.027868252
000230 c3 b7 f0 3c f4 04 6a 3d fd f7 0b bc f3 a3 d4 3c
       0.0293845 0.05713363 -0.008543012 0.025957083
000240 38 59 87 bd d0 71 9d 3c e7 0d 07 bd 60 14 14 3d
       -0.06608814 0.01921931 -0.032972243 0.036152244
000250 f6 e5 1b 3d 0e c7 86 3c 6b 4d d2 bc f2 c5 4e 3d
       0.038061105 0.016452339 -0.025671681 0.050481744
000260 1d 80 78 3c a7 2f a5 bc 3c a6 24 bd 93 7c 10 bd
       0.015167263 -0.020164324 -0.040197596 -0.035275053
000270 03 df 43 3d 03 27 e5 bc a5 3d 7b 3d 90 6b aa 3c
       0.047820102 -0.027972704 0.061338086 0.020803243
000280 a4 a0 76 bd 66 5f 22 3d b6 25 5b bd 75 4d 84 3c
       -0.060211793 0.03964176 -0.05350276 0.016150216
000290 aa 28 1e bd 7c 7a 70 bb 43 27 cd 3c 43 23 19 3c
       -0.038613 -0.00366941 0.025043136 0.009346786
0002a0 0a 1c ba 3c 3e 03 2d bd ea 71 fb 3b 6c 12 52 bc
       0.022718448 -0.04223942 0.0076734917 -0.012821775
0002b0 5e a4 fc bc 3e a0 3d 3b c7 6a 0e bc dc 9d 16 bd
       -0.030840095 0.0028934623 -0.00869245 -0.03677164
0002c0 24 6b eb bc fb 8d 79 3d 68 fb c8 3b 9a b1 de bc
       -0.028737612 0.06092642 0.0061334856 -0.027184296
0002d0 73 f1 60 bd 62 40 78 3d 95 be 4a bd 5d 06 67 bd
       -0.054917764 0.060608275 -0.04949816 -0.056402553
0002e0 9b 07 61 3d fb 12 69 bd d2 78 4a 3d 1a c7 44 b8
       0.054938894 -0.056902867 0.04943163 -4.691547e-05
0002f0 7c 5f 7a bd 35 1b 9e 3b 62 9d b2 3c ed 21 7b bd
       -0.061126217 0.0048250207 0.021803562 -0.06131165
000300 a2 23 b1 ba 09 0c 1a 3d 7d a0 78 bd c7 da bc bc
       -0.0013514648 0.037609134 -0.06069993 -0.02305354
000310 d1 a3 98 3d 6b 84 3c bd 1d 29 a4 bc 18 8d 59 bd
       0.074531205 -0.04602472 -0.020039136 -0.053113073
000320 08 36 d0 3c 8f db 01 bc bd ba 8b bc 15 37 93 39
       0.02541639 -0.007925882 -0.017056817 0.00028079064
000330 a5 b9 62 bc 70 60 b6 bd 69 24 10 3d b1 b2 d4 bc
       -0.013838206 -0.08905113 0.035190973 -0.025964113
000340 4b d5 39 3d e5 63 25 bd e6 45 46 3b 2a 51 f4 bc
       0.045369428 -0.04037847 0.0030254065 -0.029823858
000350 e2 c4 8e 3c db f8 e3 bc c1 4d 04 bc c2 75 b7 bc
       0.017427865 -0.027828624 -0.008075179 -0.022395018
000360 2a fc 0e 3d d3 f4 31 3c cc 41 1e bd 48 e4 34 bc
       0.03490845 0.010861593 -0.038636968 -0.011040755
000370 0f 9b a7 bc 46 11 72 bc 2c f8 92 ba b0 d8 80 3d
       -0.02045968 -0.014774626 -0.0011212877 0.0629133
000380 c7 7a 9c 3d fc 77 d4 bc cc ec 6e bc 1c 1c d0 3c
       0.076406054 -0.02593612 -0.014582824 0.025404029
000390 02 90 20 bc 12 3d a8 bc 0d 9b fd 3c 25 2a b1 3c
       -0.009799959 -0.020536933 0.030957723 0.021626541
0003a0 9c b2 83 bc 90 dc 5a 3c f5 97 bb ba 6c 33 b5 bc
       -0.016076379 0.01335825 -0.0014312254 -0.022119246
0003b0 6b 5c 2a bd 18 e9 0c 3d 82 0a a1 bd c5 68 29 3d
       -0.041592043 0.034401983 -0.07863332 0.04135968
0003c0 77 01 12 bc 96 e7 36 3d 76 e4 99 bc ef a7 90 3a
       -0.008911482 0.04465445 -0.018785696 0.0011036376
0003d0 7b df 10 bd a8 dc 95 3c 24 38 21 3c 23 72 38 3d
       -0.035369378 0.018293694 0.009840045 0.045030724
0003e0 f0 7d c1 bb 51 2c 21 3d 29 3e 60 3d 71 ac ca 3c
       -0.0059049055 0.039348904 0.05474678 0.02474043
0003f0 42 24 e5 3c f5 41 52 3d c2 5b 5e bb eb cd 8b 3d
       0.02797139 0.051332433 -0.0033929204 0.06826385

encoder.3.norm.weight f4 [32]
000000 d6 92 81 3f 0c f0 7d 3f f3 e6 77 3f 39 43 80 3f
       1.0122936 0.9919441 0.96836776 1.0020515
000010 b7 67 82 3f 7d eb 85 3f 30 56 83 3f 0d de 83 3f
       1.0187901 1.046249 1.0260677 1.030214
000020 a8 69 7c 3f 2d c1 80 3f a7 db 73 3f 7e 8b 7e 3f
       0.9859872 1.0058953 0.9525704 0.994316
000030 50 6e 81 3f 22 3b 85 3f ce 82 8a 3f 7f 09 80 3f
       1.011179 1.0408671 1.0821168 1.0002898
000040 e1 df 84 3f 41 f0 78 3f 11 c5 81 3f b6 68 7e 3f
       1.0380822 0.972416 1.0138265 0.99378526
000050 3e 90 79 3f cb 7a 7c 3f 63 a6 77 3f 0c b7 81 3f
       0.9748572 0.9862487 0.9673826 1.0133986
000060 75 bf 82 3f 5a 74 7a 3f dc 87 83 3f 49 e2 76 3f
       1.0214678 0.9783379 1.0275836 0.96439034
000070 72 1c 83 3f 7b 5a 7f 3f da 03 74 3f 62 1f 75 3f
       1.0243056 0.9974744 0.95318377 0.9575101

encoder.3.norm.bias f4 [32]
000000 5a 1b c5 3a 92 99 32 3d 20 b6 e6 3c d3 1b a7 3c
       0.0015038059 0.043603487 0.028163016 0.02039901
000010 77 9e 12 3d 92 de 2f 3d c9 43 a8 3c d8 5e 89 bc
       0.035795655 0.04293687 0.020540135 -0.016768858
000020 8b 8b 90 ba 47 31 7e bc 02 d1 0a bd bf 76 68 bc
       -0.0011027915 -0.015514678 -0.03389073 -0.0141884675
000030 41 02 9d bb 53 fa d7 3c 5d 19 b6 3d 1a 8d b0 bc
       -0.0047915285 0.026364481 0.088915564 -0.021551657
000040 ec fc 61 3c e7 d2 9f bc 74 dc 8f bc 97 cd ac bc
       0.013793211 -0.019509746 -0.017561175 -0.021094127
000050 ac dc 8d bc d9 81 54 bc 6f f6 4f 3b 39 cf 6e 3d
       -0.017317139 -0.012970411 0.003173258 0.05830309
000060 5d 22 de 3d 97 c4 5c bd 98 3b 51 3c 4e 8e 00 bc
       0.10846398 -0.05389842 0.012770556 -0.007846428
000070 6e ac da 3d 28 20 94 3c 60 1a 49 3d 8b ca c5 bd
       0.106774196 0.01808174 0.04909742 -0.09657773

encoder.3.norm.running_mean f4 [32]
000000 20 99 c2 bd aa ad 1a be ca c3 81 3e 82 68 97 bd
       -0.095018625 -0.1510531 0.25344688 -0.0739298
000010 51 d8 b7 bd 94 19 27 be 66 11 10 be 4e 04 4a 3e
       -0.08976806 -0.16318351 -0.14069137 0.19728205
000020 0d e9 90 be 9f 5a 9e 3d 38 af c2 3d 5b 4e 86 be
       -0.28302804 0.07732128 0.095060766 -0.26231655
000030 36 7f 2e be d3 4d ba 3e 91 70 37 3e 3a 86 33 bd
       -0.17040715 0.363875 0.17914034 -0.04382918
000040 6a 84 fe 3c b7 08 f2 be fa 82 94 be bf b1 d8 3b
       0.031069 -0.47272274 -0.29006177 0.006612986
000050 b5 0f 1f bc 53 85 51 be 6a 03 63 3e af e0 e1 bd
       -0.009708335 -0.20461015 0.22169271 -0.11029183
000060 5e 4c c1 3b 84 07 9c bd fc 29 2e 3e cf 22 d8 be
       0.0058989963 -0.07618621 0.17008203 -0.42214057
000070 12 cd 32 bd 94 94 38 3f 57 27 88 3d df 1a dd be
       -0.0436526 0.7210171 0.066481285 -0.43184564

encoder.3.norm.running_var f4 [32]
000000 3e 6f 2b 3f e0 cf a9 3f 8c 35 dd 3f 67 98 e5 3e
       0.6696662 1.3266563 1.7281966 0.44842836
000010 a2 b5 df 3e 9a 6e dd 3e 1f 9e 00 3f 74 fe 0b 3f
       0.43693262 0.43248445 0.50241274 0.5468514
000020 67 d8 01 3f 3d e2 d8 3e 9c cb b5 3e 6a f8 a3 3e
       0.5072083 0.42360106 0.35506904 0.32025462
000030 df 1b 7a 3f be 06 d9 3e c4 18 a4 3e 1e 62 33 3f
       0.9769878 0.42387956 0.32050145 0.7007159
000040 6c 54 e6 3e a8 eb 79 3f 52 e3 da 3f af 48 a3 3e
       0.44986284 0.9762521 1.7100623 0.3189139
000050 8c 45 1e 3f f5 87 59 3f f5 a1 9c 3f a1 19 a8 3e
       0.6182487 0.8497308 1.2236925 0.32832053
000060 c3 4f 80 3f e9 28 5f 3f e7 ce fe 3e c9 75 9f 3e
       1.0024341 0.871718 0.4976723 0.3114455
000070 c9 73 77 3f 10 99 c7 3f 0e 4d 86 3f d5 18 d1 3f
       0.9666105 1.5593586 1.0492265 1.6335703

encoder.4.weight f4 [32, 32, 3, 3]
000000 a6 f7 84 bc 65 d5 3b 3d 92 73 c1 bb 2a 7c d3 bb
       -0.01623137 0.045857806 -0.0059036696 -0.0064540105
000010 e9 5f 8e bd 51 52 69 3d 46 ae 93 3b ee c7 85 bc
       -0.06951887 0.05696327 0.004506859 -0.016330685
000020 14 3d 0e 3d 44 a5 a2 bc 43 9b 7a bd d6 c0 d0 bb
       0.034726217 -0.019854195 -0.061183225 -0.006370644
000030 29 7d f8 3c 46 fd c1 bd 54 0d 36 3d a5 e7 0a bd
       0.030333119 -0.09472136 0.044446304 -0.03391232
000040 07 3a 6e bd 3f 07 b2 3c c8 81 1f bd fe 25 46 bd
       -0.058160808 0.02173197 -0.03894213 -0.048376076
000050 08 12 7c 3d bb ef ac 3c 02 e3 92 3c b5 ab 63 3d
       0.061540633 0.021110406 0.017930511 0.055583674
000060 0c 70 61 bc d2 e3 0d 3d b9 8e 7b bc 65 74 1d bd
       -0.013759624 0.034641095 -0.015353852 -0.03844108
000070 1e 04 cc 3c a9 65 94 bd 33 ce 8f bd 17 63 26 bd
       0.024904307 -0.07245953 -0.07021751 -0.040621843
000080 80 26 fd 3b 16 33 63 3d 6b 93 93 bc 0e 98 86 bc
       0.007725537 0.05546864 -0.01801463 -0.016429927
000090 fd 5b 73 bd 94 f3 34 3d 4f eb d7 3c be 8b f8 3c
       -0.0594139 0.044177607 0.026357321 0.030340072
0000a0 d1 d6 28 bd 54 7e a3 bc 1c 39 c9 3b 40 db ae bc
       -0.04122049 -0.019957699 0.006140841 -0.02134478
0000b0 f1 09 cb 3d d4 7c 19 bd 3e a6 af bc 6a de 4b 3c
       0.099140055 -0.03747256 -0.021441575 0.012443164
0000c0 d4 84 e8 3c 81 30 18 3d 52 40 9f bd be e8 2d 3d
       0.02838365 0.037155632 -0.0777594 0.04245829
0000d0 b1 52 dc ba a7 54 95 bd c7 49 b9 bd a0 df 3d bc
       -0.0016809312 -0.07291537 -0.09047275 -0.011588961
0000e0 b1 ac 84 3d 27 7f 14 3c 94 95 3a 3c 47 c1 85 bd
       0.06478251 0.009063519 0.011388201 -0.06531005
0000f0 71 63 25 3c e4 2e d6 bc 7a 27 84 3d 0d 78 70 3c
       0.010094509 -0.026145406 0.06452842 0.01467706
000100 38 c7 49 3d 8d fa 12 3d 3d 5c db 3b ca 2f 2a 3c
       0.049262255 0.035883475 0.0066943453 0.01038737
000110 7b e9 04 3d 1c ed 5d bb d3 62 30 bd 3f 57 56 3d
       0.032449227 -0.0033863252 -0.043062996 0.052329298
000120 02 d0 ff 3c 56 92 ea bc a3 6c 85 bd 3d 75 0d 3d
       0.031227116 -0.028634232 -0.065148614 0.034535635
000130 e5 97 5a bd 5b 6d 20 bc 53 67 30 3d 44 52 81 bc
       -0.053367514 -0.009791697 0.043067288 -0.015786298
000140 39 cf 38 3c e5 0f 1a bd 9b ca b2 bc 33 fb 0f bd
       0.0112798745 -0.037612814 -0.021825125 -0.03515167
000150 5b c4 39 3d 41 d5 8d bd a3 fe 79 3d 50 3f 0c bd
       0.045353275 -0.069254406 0.061033856 -0.034240067
000160 09 1e ea 3c 7a af af bc f0 09 9d b9 ad a9 20 3b
       0.028578775 -0.021445978 -0.00029952778 0.0024515197
000170 5c b3 72 bc 4c 9c 0d 3b 96 58 20 bd 7b a1 03 bd
       -0.01481327 0.0021608053 -0.039146982 -0.03213642
000180 ea b2 38 bd 54 77 39 bd b1 a7 76 bb 66 5c 83 3d
       -0.0450925 -0.045279816 -0.0037636573 0.06414108
000190 36 ec 64 bd f5 da 52 bb 71 e2 29 bd 3b 35 da bd
       -0.05588933 -0.0032173966 -0.041475717 -0.10654684
0001a0 7b ea 64 3d df 42 af bc b5 b7 28 3d fd fe c8 3b
       0.05588768 -0.021394191 0.04119082 0.0061339126
0001b0 80 1b 79 3b 08 9a 41 bc 1d 12 84 3d f5 34 1c bd
       0.0038010776 -0.011816509 0.06448767 -0.03813644
0001c0 cb d5 a7 3d 1d b5 a3 3c 85 5c c4 bc 1c bd 72 bd
       0.08195075 0.019983822 -0.023969898 -0.05926238
0001d0 cb 93 9f 3d 0a cf 93 3c 20 a1 5c bb 04 04 79 bc
       0.07791861 0.01804306 -0.0033665374 -0.015198711
0001e0 e7 85 3c 3d 07 12 cf bc af d2 5e 3d 2a f6 40 bd
       0.046026137 -0.02527715 0.054400142 -0.04710976
0001f0 af bc 81 bd 84 e0 a2 3c 2e eb 46 bd 9b ad 58 3b
       -0.06334817 0.019882448 -0.04856413 0.0033062461
000200 c2 f5 26 3c 3d 31 39 bd 92 94 5f 3c 91 75 01 bd
       0.010190429 -0.045212973 0.013646262 -0.03160626
000210 88 b6 d0 3c c1 89 d6 bc ec d6 aa 3c 8f 8e 27 3d
       0.025477663 -0.026188733 0.020854436 0.04090744
000220 aa de 6a bc 8a 04 2b 3d e4 ab b7 bc f2 c8 40 3c
       -0.014335314 0.041752376 -0.022420831 0.011766659
000230 c4 f9 3f 3d 9a a9 75 3d 06 fb 8f 3c 72 ec 49 bd
       0.046869054 0.059976198 0.017575752 -0.049297757
000240 0e c4 ec bc a8 d7 4d 3c ab 15 9e 3d f7 03 a8 bc
       -0.02890208 0.0125636235 0.077189766 -0.020509703
000250 c6 91 3a 3d b8 01 62 3d 24 12 96 bb 76 fc 14 3d
       0.045549177 0.05517742 -0.0045797992 0.036373578
000260 93 9f 15 3c e1 06 95 3c 1a 7d 50 3c d5 45 b2 bc
       0.009132284 0.018191757 0.012725139 -0.021761814
000270 76 9b fe bc 92 53 2b 3d 89 4d 11 bd b4 8b 63 3b
       -0.031079989 0.041827746 -0.035474334 0.003472072
000280 4f fc 98 3d 00 d8 60 3b bc f0 23 bd 00 9a 59 bd
       0.07469999 0.0034308434 -0.040024504 -0.05312538
000290 fb 5d 05 3d b1 8b 37 bc c5 4e fa bc 00 e6 54 bc
       0.03256033 -0.011202739 -0.030555138 -0.012994289
0002a0 76 81 1f b9 7e 9a 40 3b cd 29 20 bd ae e3 41 bd
       -0.0001521165 0.002938896 -0.039102364 -0.047336273
0002b0 b6 71 c4 bb 22 c7 49 3d a9 35 0f bc a8 75 23 39
       -0.0059950007 0.049262173 -0.008740821 0.00015588722
0002c0 c9 48 9b bd cc 59 05 bd 02 ee 02 3d 19 4e 99 bc
       -0.07582242 -0.03255634 0.031965263 -0.018713998
0002d0 e8 ec 34 bd 11 a3 73 bd 5d 4f 8c 3b f8 d8 40 3d
       -0.044171244 -0.059481684 0.004281922 0.047081918
0002e0 72 81 73 39 5e 97 df bc b7 f9 33 3d 8e e1 09 3d
       0.00023222508 -0.027293857 0.04393932 0.03366237
0002f0 0d 26 df ba 7f 36 bd 3c 5c d2 7a bc b0 08 04 bb
       -0.001702489 0.023097275 -0.015308943 -0.002014678
000300 62 03 24 3d 78 f3 81 bd f4 99 67 bd f0 11 81 3d
       0.04004229 -0.06345266 -0.056543306 0.063022494
000310 97 4a 2c bd 4f cf 92 ba 65 61 8f 3d 8a c2 8c bd
       -0.042063322 -0.0011200699 0.070009984 -0.06873043
000320 59 ef 18 3d 63 ee a3 3c f7 db e9 3c ea bc da bc
       0.037337635 0.020011133 0.02854727 -0.02670141
000330 fd 77 d9 3c f3 11 0e 3c 1d cb 51 3d d8 2f 89 bd
       0.026546473 0.008671272 0.051219095 -0.066985786
000340 ac c5 a2 ba e5 a1 2f bd fe ca 4d bc be be 95 3c
       -0.001241853 -0.042879004 -0.012560604 0.01827943
000350 6d 55 33 3c 6c 19 60 bc 7b fd 89 bc 40 05 98 bc
       0.01094566 -0.013677936 -0.016844502 -0.01855719
000360 e5 e0 97 3c 2b cc ce 3c 3b 60 8d bb 37 82 75 bd
       0.018539855 0.02524384 -0.00431445 -0.059938636
000370 b3 42 1e bc 4d ff c0 bc 16 24 bb 3b ea 4c 9d bd
       -0.009659457 -0.023559237 0.005711089 -0.07680686
000380 f6 7d 45 3d 06 f5 08 3d 08 5a dd bc 2b fd b1 bc
       0.04821583 0.033436798 -0.02702047 -0.021727165
000390 73 2d 79 3b e3 43 51 bc fa bf 89 bc ab 57 ee bc
       0.0038021475 -0.012772533 -0.016815174 -0.029094538
0003a0 b7 b0 2e 3c 7f 3d 0f bd 32 c1 18 bc e7 af 0c 3d
       0.010662249 -0.034970757 -0.009323405 0.03434744
0003b0 ba cb 99 3c 4c cc e6 bc 8f 0e 96 bd 47 de 29 bc
       0.018773902 -0.028173588 -0.073269956 -0.010367936
0003c0 94 67 78 3c 1b 72 45 bc f1 0e 7c 3d 2c 48 2d bd
       0.015161414 -0.012051131 0.061537687 -0.042305157
0003d0 c2 88 86 bc a4 83 b5 3c 15 e8 84 bc 42 22 2c bd
       -0.016422633 0.022157498 -0.016223947 -0.04202486
0003e0 b3 4a b4 bc 84 da 00 3d cc b0 21 3d 1e 8f a1 3d
       -0.022008276 0.031458393 0.039475247 0.078886256
0003f0 dc fc 0f 3b 6a 9c 2f bd 43 e0 8a 3b bd f7 b1 bc
       0.0021970784 -0.042873777 0.00423816 -0.021724576
